Homework/HW1_Regression/models/model.ckpt (torch, 10199 bytes, 5 tensors)

layers.0.weight f4 [16, 117]
0	0xbe8ed482	-0.27896506
1	0x3db30d2a	0.08742745
2	0x3d7b0784	0.061286464
3	0xbb49819c	-0.003074742
4	0x3da1b062	0.078949705
5	0x3c98dea2	0.018660847
6	0xbcb378e3	-0.02190823
7	0x3d0b656f	0.03403228
8	0x3d2e0583	0.042485725
9	0x3c5702a8	0.013123192
10	0xbc916591	-0.017748626
11	0xbc86bcbb	-0.016447416
12	0xbc87c3d4	-0.01657287
13	0xbc6ad6f7	-0.014333478
14	0x3ca961d1	0.020676525
15	0x3c5a3e9c	0.013320591
16	0x3d459816	0.048240744
17	0x3cac4d72	0.021033023
18	0x3db7f0e1	0.08981491
19	0x3d88e93b	0.0668511
20	0x3d8a0372	0.067389384
21	0xbd6cf481	-0.057850365
22	0x3d85b596	0.065287754
23	0x3d96a938	0.07356495
24	0x3d780b72	0.06055779
25	0xbd2d360a	-0.042287864
26	0x3d523b85	0.051326293
27	0x3d9117ab	0.070845924
28	0xbdb6db19	-0.08928508
29	0x3d841c67	0.0645073
30	0x3d634521	0.05548585
31	0xbda7533f	-0.08170175
32	0xbc4674f3	-0.012112844
33	0xbced0101	-0.028931143
34	0xbc6e4287	-0.014542229
35	0x3d203d65	0.03912105
36	0xbcbf282f	-0.02333459
37	0xbd927f13	-0.07153144
38	0x3d1aeb42	0.037822016
39	0x3d4ef46f	0.05052608
40	0xbc8d7b90	-0.017270833
41	0x3db652ac	0.08902487
42	0xbcf18900	-0.029484272
43	0xbd8e5223	-0.0694926
44	0xbd93ad18	-0.072107494
45	0xbda93422	-0.08261897
46	0x3d7dfc06	0.062007926
47	0xbd02e7e8	-0.031959444
48	0x3d0aae06	0.033857368
49	0xbd869258	-0.065708816
50	0xbd86b55d	-0.06577561
51	0x3d8963b4	0.0670847
52	0x3d022b55	0.031779606
53	0xbd210356	-0.039309822
54	0x3d444f0f	0.04792696
55	0xbd5a3323	-0.053271424
56	0xbc0ef8f9	-0.008726352
57	0xbd87e1d2	-0.06634869
58	0x3c457529	0.012051859
59	0xbc7b1241	-0.015324176
60	0xbd94cc32	-0.0726551
61	0xbda766a6	-0.081738755
62	0xbd011f9f	-0.031524297
63	0x3c34478d	0.011003387
64	0xbd3a810e	-0.045533232
65	0xbd8bdb6d	-0.068289615
66	0x3d4132b5	0.0471675
67	0x3c9f2583	0.019427067
68	0x3dada800	0.08479309
69	0x3d953dc7	0.07287174
70	0x3d28c7ed	0.04120629
71	0x3d69c404	0.0570717
72	0xbd99584c	-0.074875444
73	0xbd61a4f3	-0.05508895
74	0x3d51df02	0.051238067
75	0x3db23e5d	0.08703301
76	0x3d6f8b52	0.058482476
77	0xbd30d158	-0.043168396
78	0x3d771fc0	0.060333014
79	0xbdca4eba	-0.09878297
80	0x3cfea12a	0.031082708
81	0xbca57b97	-0.020200534
82	0x3d6aa5ea	0.057287134
83	0x3da8e8b8	0.082475126
84	0x3daa8c3d	0.083275296
85	0x3db0f46d	0.086403705
86	0x3d5ec887	0.054390457
87	0xbcc9acd8	-0.024618551
88	0xbba400b4	-0.0050049666
89	0xbcac5e23	-0.021040982
90	0x3d538c56	0.051647507
91	0x3a964a46	0.0011466227
92	0xbd5021dd	-0.050813545
93	0xbd4992bd	-0.049212206
94	0xbc929422	-0.0178929
95	0x3cf298e5	0.029613921
96	0x3d919e6e	0.07110296
97	0x3c365d41	0.011130632
98	0xbd892dd7	-0.066981964
99	0x3d45cc91	0.048290793
100	0xbd4c7194	-0.049913004
101	0x3d536e8c	0.051619098
102	0x3d4a95ed	0.049459387
103	0x3bc5c0cd	0.0060349465
104	0xbbf642fc	-0.0075153094
105	0x3caf977d	0.02143454
106	0x3d0d0443	0.034427892
107	0x3d94c0d7	0.07263344
108	0xbd2d644b	-0.042331975
109	0x3d7a1b52	0.06106121
110	0x3a852906	0.0010159321
111	0x3c90f2dc	0.01769393
112	0xbd8dc66d	-0.06922612
113	0x3bfd7ec5	0.0077360594
114	0x3da9a350	0.082831025
115	0x3d2a8896	0.041634165
116	0xbb2c6cc6	-0.0026309951
117	0x3c03e76e	0.008050783
118	0x3cde501c	0.027137809
119	0x3d7b0914	0.061287954
120	0x3dc929bc	0.09822413
121	0xbc148339	-0.009064489
122	0x3c9f4df4	0.01944635
123	0xbc29c316	-0.0103614535
124	0x3d35f288	0.04442075
125	0xbd30316e	-0.04301589
126	0x3d6a7f15	0.0572501
127	0x3c65fa3a	0.014036709
128	0xbba1aca8	-0.0049339123
129	0x3cad3b1c	0.02114635
130	0x3d98b6f3	0.0745677
131	0xbd11c638	-0.035589427
132	0xbdbfa7e2	-0.09358193
133	0xbb7aa6ba	-0.003824635
134	0xbd94e604	-0.072704345
135	0x3d66d281	0.056353096
136	0x3dbd9f7e	0.09258936
137	0x3caec333	0.021333313
138	0x3dcc2851	0.09968627
139	0x3d8775ed	0.066142894
140	0xbcfbbd26	-0.030729841
141	0x3da3c00b	0.07995614
142	0xbdaee301	-0.08539391
143	0xbd9865a3	-0.07441261
144	0xbd4cdd13	-0.05001552
145	0xbd0b7128	-0.03404346
146	0x3c4e4a48	0.012590952
147	0x3d0a380f	0.033744868
148	0x3dc351b7	0.0953707
149	0xbbeddcf3	-0.007259005
150	0xbd5e61dd	-0.05429255
151	0x3cb81def	0.022475211
152	0x3baf307c	0.005346356
153	0xbd77990e	-0.0604487
154	0xbb9fe25c	-0.004879279
155	0xbcf55d9e	-0.029951867
156	0x3d5fd779	0.05464885
157	0x3d4dbf82	0.050231464
158	0x3d20fdf9	0.039304707
159	0x3cb7d898	0.022442147
160	0xbcd45578	-0.02591966
161	0x3cd5d771	0.026103707
162	0x3bfbe23a	0.0076868804
163	0x3d265ea8	0.040617615
164	0xbd8f617d	-0.07001016
165	0xb95c4995	-0.00021008246
166	0xbcca280b	-0.024677297
167	0x3d472807	0.048622157
168	0xbdb8681c	-0.09004232
169	0xbd1b32a2	-0.037890084
170	0x3e4b2aaf	0.19840501
171	0xbcdd636e	-0.02702495
172	0xbcee1163	-0.029061025
173	0xbcc958c1	-0.024578454
174	0x3c98312c	0.018578134
175	0x3d48efe7	0.049056914
176	0x3d897d85	0.06713394
177	0x3a9db815	0.001203301
178	0xbc562245	-0.013069694
179	0x3af00fa3	0.0018315207
180	0x3d188dbf	0.037244555
181	0x3cc51051	0.024055632
182	0xbc4462ce	-0.0119864475
183	0xbd77ec19	-0.060527895
184	0xbd64828e	-0.05578857
185	0x39f10612	0.00045971625
186	0x3ecf68bf	0.40509602
187	0xbd56dd32	-0.052457042
188	0xbc9eb6fd	-0.019374365
189	0x3c0e5e2b	0.008689444
190	0xbceb9816	-0.028759044
191	0x3d845243	0.06461003
192	0xbd25d68f	-0.040487822
193	0xbd946a64	-0.07246855
194	0x3d0490af	0.032364544
195	0x3d3516d6	0.04421123
196	0xbd289b3c	-0.041163668
197	0xbca377f8	-0.019954666
198	0x3b91b769	0.004446913
199	0x3c72b5ab	0.014813821
200	0x3d59c30c	0.053164527
201	0x3d5b7fde	0.05358874
202	0x3f1e3b88	0.6180959
203	0x3c26a732	0.010171698
204	0x3bbdcc78	0.005792197
205	0xbbb8d2fe	-0.0056403866
206	0x3df77e63	0.12084653
207	0x3d38d64e	0.045126252
208	0xbbe7b4ba	-0.007071105
209	0x3d09c082	0.033630855
210	0xbdbf7017	-0.09347551
211	0x3dbeed4a	0.09322603
212	0xbd67037f	-0.05639982
213	0xbd66d895	-0.056358892
214	0xbdd1b48e	-0.10239516
215	0x3d25c005	0.040466327
216	0xbc7d7b77	-0.015471331
217	0xbdc108ed	-0.094255306
218	0x3f422925	0.7584403
219	0x3d1997ff	0.03749847
220	0x3da9355e	0.08262132
221	0x3e101f92	0.14074543
222	0x3d8d1ac7	0.06889873
223	0x3cd6fb81	0.026242973
224	0xbd647878	-0.05577895
225	0x3c50ffb2	0.012756275
226	0x3cabebbd	0.020986432
227	0xbd68115a	-0.056657173
228	0x3d418421	0.04724515
229	0x3d8cf8c2	0.06883384
230	0xbcd9254f	-0.026507048
231	0x3c295fa7	0.010337747
232	0xbdd115db	-0.10209247
233	0x3c6c9b06	0.014441257
234	0xbd3cff94	-0.046142176
235	0xbda6d879	-0.08146758
236	0xbc82c87a	-0.015964735
237	0xbcf4026a	-0.029786307
238	0x3d3cf8d4	0.04613574
239	0x3d95c3b6	0.073127195
240	0x3d90a8b1	0.07063425
241	0xb7987131	-1.817252e-05
242	0xbd0a8acd	-0.033823777
243	0x3d52946a	0.05141107
244	0xbd9b11ad	-0.07571731
245	0x3bb1f367	0.005430627
246	0xbd710c68	-0.058849722
247	0x3bb32150	0.0054666176
248	0xbd71be62	-0.059019454
249	0xbc39329f	-0.011303573
250	0xbd23f7b5	-0.040031154
251	0x3a222587	0.00061854016
252	0x3b73188e	0.0037093493
253	0xbd92871b	-0.071546756
254	0x3d405c22	0.046962865
255	0x3d9d5649	0.07682473

layers.0.bias f4 [16]
0	0x3ca29757	0.019847555
1	0x3d852c55	0.06502596
2	0xbda8ec20	-0.08248162
3	0xbd5a8935	-0.053353507
4	0xbc6e7503	-0.014554265
5	0xbdb609fc	-0.08888623
6	0xbdb19fa3	-0.086730264
7	0xbd8eacaf	-0.069665305
8	0x3d74f3fb	0.05980299
9	0xbc4b1720	-0.01239565
10	0xbda96528	-0.08271247
11	0xbd74d5a0	-0.05977404
12	0x3d3ffe72	0.046873517
13	0x3d547be5	0.051875968
14	0x3d838832	0.064224616
15	0xbcf3ece1	-0.029776039

layers.2.weight f4 [8, 16]
0	0x3d52125a	0.051287033
1	0x3daab18b	0.08334645
2	0xbdac1a48	-0.0840345
3	0xbd5897ce	-0.052879147
4	0x3d549e35	0.05190869
5	0x3e3d16cb	0.18465726
6	0xbdad6833	-0.0846714
7	0x3e40184c	0.18759269
8	0x3d9045f7	0.07044595
9	0xbe48e236	-0.19617543
10	0x3de80ebc	0.11330935
11	0xbe7cf649	-0.24703325
12	0xbe181c96	-0.14854655
13	0xbd384279	-0.04498527
14	0xbde50c87	-0.1118403
15	0x3d755cb4	0.05990286
16	0xbd30d4bb	-0.043171626
17	0xbd0a8471	-0.033817712
18	0x3e4a7e33	0.19774704
19	0x3e742e46	0.23845777
20	0x3d7387c5	0.05945565
21	0x3e29e918	0.16592824
22	0x3e2d45cc	0.16921157
23	0xbe45f085	-0.19330032
24	0xbd8e8031	-0.06958044
25	0xbdef21a8	-0.11676341
26	0x3e0df5e8	0.13863337
27	0xbdba5fc9	-0.09100301
28	0xbbb69b40	-0.0055727065
29	0x3c94cdbe	0.018164512
30	0xbd5d52d7	-0.05403408
31	0x3e1b1cc8	0.15147698
32	0x3e4346a1	0.19069912
33	0xbd0ff5c9	-0.03514651
34	0x3d507dae	0.050901107
35	0xbe182215	-0.14856751
36	0x3d204821	0.039131287
37	0x3dffd138	0.12491077
38	0xbe5b6c3b	-0.21428005
39	0x3e028936	0.12747654
40	0x3de7628c	0.11298093
41	0x3d70fb78	0.05883357
42	0x3e7933aa	0.24336115
43	0x3deaca6b	0.114643894
44	0xbca62f40	-0.020286202
45	0xbe5be64d	-0.21474572
46	0xbe23e7dd	-0.16006418
47	0x3e55ed61	0.20891334
48	0x3e12f7d5	0.14352353
49	0x3e7282ef	0.2368276
50	0x3dbd3b58	0.092398345
51	0xbe29c2e5	-0.16578253
52	0x3e413dc1	0.18871213
53	0x3d0516ca	0.032492436
54	0xbda0e76b	-0.078566395
55	0x3e8c6dd3	0.2742754
56	0x3e5b6491	0.21425082
57	0x3ce61be0	0.028089464
58	0x3df91674	0.12162486
59	0x3b916e25	0.004438179
60	0xbda02484	-0.07819465
61	0x3e8d1f88	0.2756312
62	0xbd907ea1	-0.070554025
63	0x3e9b196c	0.30292833
64	0x3d63c2a9	0.055605564
65	0x3d1f65ef	0.03891557
66	0x3bbb6a2d	0.0057194442
67	0x3e635427	0.2220007
68	0xbe4c7230	-0.19965434
69	0xbe0c46fc	-0.13698953
70	0x3d8a283f	0.067459576
71	0xbd255174	-0.040360883
72	0xbddbdeb2	-0.10735835
73	0x3b139e80	0.0022524893
74	0xbe34d66c	-0.1765992
75	0x3de5cd40	0.11220789
76	0x3d205408	0.03914264
77	0xbd48c177	-0.049012627
78	0xbe0bead2	-0.13663796
79	0xbe4699f4	-0.19394666
80	0xbe62626f	-0.22107862
81	0x3dc704e1	0.097177275
82	0x3e03707e	0.12835881
83	0x3e41a392	0.18910053
84	0x3e2663e2	0.1624904
85	0x3de4877d	0.11158655
86	0x3dfb8c6c	0.12282643
87	0xbdb11a0e	-0.08647548
88	0xbe14418d	-0.1447813
89	0xbe1ec9fc	-0.15506738
90	0x3e53c1e6	0.20679435
91	0x3e03745f	0.12837361
92	0xbd170288	-0.03686765
93	0xbb86abc7	-0.004109833
94	0xbe19c05e	-0.15014789
95	0x3d327423	0.043567788
96	0x3e4547c2	0.19265655
97	0xbe4265b5	-0.1898411
98	0x3e411a4c	0.18857688
99	0xbe526260	-0.2054534
100	0x3ddb7d0e	0.10717212
101	0x3e0d31b3	0.1378849
102	0xbe274e77	-0.16338526
103	0xbe8cc538	-0.27494216
104	0xbb43c3da	-0.0029871375
105	0xbda34ea0	-0.07973981
106	0xbd1e7fa0	-0.03869593
107	0xbe97fc59	-0.29684713
108	0x3e7f3856	0.24923834
109	0x3e44c41e	0.19215438
110	0x3c6ab6d6	0.014325818
111	0xbd7eef74	-0.06224008
112	0x3e7abb4a	0.24485508
113	0x3dfcebc1	0.12349654
114	0xbde445a5	-0.11146096
115	0xbddec170	-0.10876739
116	0xbdecc47d	-0.11560915
117	0xbd435600	-0.047689438
118	0xbe3a073a	-0.18166819
119	0x3e4ae569	0.19814076
120	0xbd979631	-0.074016936
121	0x3e120226	0.14258632
122	0x3e071efe	0.13195416
123	0x3d6efd77	0.05834719
124	0xbe120662	-0.14260247
125	0x3e573201	0.21015169
126	0x3e8d9282	0.2765084
127	0xbc80a82c	-0.01570519

layers.2.bias f4 [8]
0	0x3e782c79	0.24235715
1	0xbde7bfdf	-0.113158934
2	0x3e5e22ab	0.21692912
3	0x3e6f33f0	0.23359656
4	0x3d5529d9	0.052041862
5	0xbe4b2be0	-0.19840956
6	0x3e2579c1	0.16159727
7	0x3e1445a9	0.14479698

layers.4.weight f4 [1, 8]
0	0x3e5d1a79	0.2159213
1	0xbdf0396c	-0.11729702
2	0x3d953659	0.072857566
3	0x3ed02863	0.40655813
4	0xbe285f1b	-0.1644253
5	0x3cd13a17	0.025540395
6	0xbe181e5a	-0.14855328
7	0x3e57466f	0.21022962
